#loc = loc("/work/projects/polyullm/shihao/data_quality/cache/serve/torchinductor/z3/cz3ponrq7sytqn3ktn5fumjzrrngmcld24hin335oqenxkxdqcg4.py":18:0)
#loc22 = loc("in_ptr0"(#loc))
#loc23 = loc("out_ptr0"(#loc))
#loc24 = loc("ks0"(#loc))
#loc25 = loc("ks1"(#loc))
#loc26 = loc("ks2"(#loc))
#loc27 = loc("ks3"(#loc))
module {
  tt.func public @triton_poi_fused_bitwise_and_bitwise_not_bitwise_or_ge_lt_1(%in_ptr0: !tt.ptr<i64> {tt.divisibility = 16 : i32} loc("in_ptr0"(#loc)), %out_ptr0: !tt.ptr<i1> {tt.divisibility = 16 : i32} loc("out_ptr0"(#loc)), %ks0: i64 loc("ks0"(#loc)), %ks1: i64 loc("ks1"(#loc)), %ks2: i64 loc("ks2"(#loc)), %ks3: i64 loc("ks3"(#loc))) attributes {noinline = false} {
    %xnumel = arith.constant 1 : i32 loc(#loc28)
    %xoffset = tt.get_program_id x : i32 loc(#loc29)
    %xoffset_0 = arith.constant 1 : i32 loc(#loc30)
    %xoffset_1 = arith.constant 1 : i32 loc(#loc30)
    %xoffset_2 = arith.muli %xoffset, %xoffset_1 : i32 loc(#loc30)
    %xindex = tt.make_range {end = 1 : i32, start = 0 : i32} : tensor<1xi32> loc(#loc31)
    %xindex_3 = tt.splat %xoffset_2 : i32 -> tensor<1xi32> loc(#loc32)
    %xindex_4 = arith.addi %xindex_3, %xindex : tensor<1xi32> loc(#loc32)
    %xmask = arith.constant true loc(#loc33)
    %xmask_5 = arith.constant dense<true> : tensor<1xi1> loc(#loc33)
    %tmp0 = arith.constant 0 : i32 loc(#loc34)
    %tmp0_6 = tt.addptr %in_ptr0, %tmp0 : !tt.ptr<i64>, i32 loc(#loc34)
    %tmp0_7 = tt.load %tmp0_6 : !tt.ptr<i64> loc(#loc35)
    %tmp1 = tt.splat %tmp0_7 : i64 -> tensor<1xi64> loc(#loc36)
    %tmp3 = tt.splat %ks0 : i64 -> tensor<1xi64> loc(#loc37)
    %tmp3_8 = arith.cmpi sge, %tmp1, %tmp3 : tensor<1xi64> loc(#loc37)
    %tmp5 = tt.splat %ks1 : i64 -> tensor<1xi64> loc(#loc38)
    %tmp5_9 = arith.cmpi slt, %tmp1, %tmp5 : tensor<1xi64> loc(#loc38)
    %tmp6 = arith.andi %tmp3_8, %tmp5_9 : tensor<1xi1> loc(#loc39)
    %tmp8 = tt.splat %ks2 : i64 -> tensor<1xi64> loc(#loc40)
    %tmp8_10 = arith.cmpi sge, %tmp1, %tmp8 : tensor<1xi64> loc(#loc40)
    %tmp10 = tt.splat %ks3 : i64 -> tensor<1xi64> loc(#loc41)
    %tmp10_11 = arith.cmpi slt, %tmp1, %tmp10 : tensor<1xi64> loc(#loc41)
    %tmp11 = arith.andi %tmp8_10, %tmp10_11 : tensor<1xi1> loc(#loc42)
    %tmp12 = arith.ori %tmp6, %tmp11 : tensor<1xi1> loc(#loc43)
    %tmp13 = arith.constant 0 : i32 loc(#loc44)
    %tmp13_12 = arith.extui %tmp12 : tensor<1xi1> to tensor<1xi32> loc(#loc44)
    %tmp13_13 = arith.constant dense<0> : tensor<1xi32> loc(#loc44)
    %tmp13_14 = arith.cmpi eq, %tmp13_12, %tmp13_13 : tensor<1xi32> loc(#loc44)
    %c0_i32 = arith.constant 0 : i32 loc(#loc18)
    %cst = arith.constant dense<0> : tensor<1xi32> loc(#loc18)
    %0 = tt.splat %out_ptr0 : !tt.ptr<i1> -> tensor<1x!tt.ptr<i1>> loc(#loc19)
    %1 = tt.addptr %0, %cst : tensor<1x!tt.ptr<i1>>, tensor<1xi32> loc(#loc19)
    %2 = tt.bitcast %1 : tensor<1x!tt.ptr<i1>> -> tensor<1x!tt.ptr<i8>> loc(#loc20)
    %3 = arith.extui %tmp13_14 : tensor<1xi1> to tensor<1xi8> loc(#loc20)
    tt.store %2, %3 : tensor<1x!tt.ptr<i8>> loc(#loc20)
    tt.return loc(#loc21)
  } loc(#loc)
} loc(#loc)
#loc1 = loc("/work/projects/polyullm/shihao/data_quality/cache/serve/torchinductor/z3/cz3ponrq7sytqn3ktn5fumjzrrngmcld24hin335oqenxkxdqcg4.py":19:13)
#loc2 = loc("/work/projects/polyullm/shihao/data_quality/cache/serve/torchinductor/z3/cz3ponrq7sytqn3ktn5fumjzrrngmcld24hin335oqenxkxdqcg4.py":20:28)
#loc3 = loc("/work/projects/polyullm/shihao/data_quality/cache/serve/torchinductor/z3/cz3ponrq7sytqn3ktn5fumjzrrngmcld24hin335oqenxkxdqcg4.py":20:33)
#loc4 = loc("/work/projects/polyullm/shihao/data_quality/cache/serve/torchinductor/z3/cz3ponrq7sytqn3ktn5fumjzrrngmcld24hin335oqenxkxdqcg4.py":21:36)
#loc5 = loc("/work/projects/polyullm/shihao/data_quality/cache/serve/torchinductor/z3/cz3ponrq7sytqn3ktn5fumjzrrngmcld24hin335oqenxkxdqcg4.py":21:23)
#loc6 = loc("/work/projects/polyullm/shihao/data_quality/cache/serve/torchinductor/z3/cz3ponrq7sytqn3ktn5fumjzrrngmcld24hin335oqenxkxdqcg4.py":22:36)
#loc7 = loc("/work/projects/polyullm/shihao/data_quality/cache/serve/torchinductor/z3/cz3ponrq7sytqn3ktn5fumjzrrngmcld24hin335oqenxkxdqcg4.py":23:30)
#loc8 = loc("/work/projects/polyullm/shihao/data_quality/cache/serve/torchinductor/z3/cz3ponrq7sytqn3ktn5fumjzrrngmcld24hin335oqenxkxdqcg4.py":23:19)
#loc9 = loc("/work/projects/polyullm/shihao/data_quality/cache/serve/torchinductor/z3/cz3ponrq7sytqn3ktn5fumjzrrngmcld24hin335oqenxkxdqcg4.py":24:33)
#loc10 = loc("/work/projects/polyullm/shihao/data_quality/cache/serve/torchinductor/z3/cz3ponrq7sytqn3ktn5fumjzrrngmcld24hin335oqenxkxdqcg4.py":26:19)
#loc11 = loc("/work/projects/polyullm/shihao/data_quality/cache/serve/torchinductor/z3/cz3ponrq7sytqn3ktn5fumjzrrngmcld24hin335oqenxkxdqcg4.py":28:18)
#loc12 = loc("/work/projects/polyullm/shihao/data_quality/cache/serve/torchinductor/z3/cz3ponrq7sytqn3ktn5fumjzrrngmcld24hin335oqenxkxdqcg4.py":29:18)
#loc13 = loc("/work/projects/polyullm/shihao/data_quality/cache/serve/torchinductor/z3/cz3ponrq7sytqn3ktn5fumjzrrngmcld24hin335oqenxkxdqcg4.py":31:19)
#loc14 = loc("/work/projects/polyullm/shihao/data_quality/cache/serve/torchinductor/z3/cz3ponrq7sytqn3ktn5fumjzrrngmcld24hin335oqenxkxdqcg4.py":33:19)
#loc15 = loc("/work/projects/polyullm/shihao/data_quality/cache/serve/torchinductor/z3/cz3ponrq7sytqn3ktn5fumjzrrngmcld24hin335oqenxkxdqcg4.py":34:19)
#loc16 = loc("/work/projects/polyullm/shihao/data_quality/cache/serve/torchinductor/z3/cz3ponrq7sytqn3ktn5fumjzrrngmcld24hin335oqenxkxdqcg4.py":35:19)
#loc17 = loc("/work/projects/polyullm/shihao/data_quality/cache/serve/torchinductor/z3/cz3ponrq7sytqn3ktn5fumjzrrngmcld24hin335oqenxkxdqcg4.py":36:21)
#loc18 = loc("/work/projects/polyullm/shihao/data_quality/cache/serve/torchinductor/z3/cz3ponrq7sytqn3ktn5fumjzrrngmcld24hin335oqenxkxdqcg4.py":37:46)
#loc19 = loc("/work/projects/polyullm/shihao/data_quality/cache/serve/torchinductor/z3/cz3ponrq7sytqn3ktn5fumjzrrngmcld24hin335oqenxkxdqcg4.py":37:25)
#loc20 = loc("/work/projects/polyullm/shihao/data_quality/cache/serve/torchinductor/z3/cz3ponrq7sytqn3ktn5fumjzrrngmcld24hin335oqenxkxdqcg4.py":37:65)
#loc21 = loc("/work/projects/polyullm/shihao/data_quality/cache/serve/torchinductor/z3/cz3ponrq7sytqn3ktn5fumjzrrngmcld24hin335oqenxkxdqcg4.py":37:4)
#loc28 = loc("xnumel"(#loc1))
#loc29 = loc("xoffset"(#loc2))
#loc30 = loc("xoffset"(#loc3))
#loc31 = loc("xindex"(#loc4))
#loc32 = loc("xindex"(#loc5))
#loc33 = loc("xmask"(#loc6))
#loc34 = loc("tmp0"(#loc7))
#loc35 = loc("tmp0"(#loc8))
#loc36 = loc("tmp1"(#loc9))
#loc37 = loc("tmp3"(#loc10))
#loc38 = loc("tmp5"(#loc11))
#loc39 = loc("tmp6"(#loc12))
#loc40 = loc("tmp8"(#loc13))
#loc41 = loc("tmp10"(#loc14))
#loc42 = loc("tmp11"(#loc15))
#loc43 = loc("tmp12"(#loc16))
#loc44 = loc("tmp13"(#loc17))
