#loc = loc("/work/projects/polyullm/shihao/data_quality/cache/serve/torchinductor/53/c53xfo6zg7hrs4wwq4z3lapbadpzosm6usga2ty46ox64v6nim25.py":18:0)
#loc33 = loc("in_ptr0"(#loc))
#loc34 = loc("out_ptr0"(#loc))
#loc35 = loc("out_ptr1"(#loc))
#loc36 = loc("ks0"(#loc))
#loc37 = loc("ks1"(#loc))
#loc38 = loc("ks2"(#loc))
#loc39 = loc("ks3"(#loc))
#loc40 = loc("ks4"(#loc))
#loc41 = loc("xnumel"(#loc))
module {
  tt.func public @triton_poi_fused_add_bitwise_and_bitwise_not_bitwise_or_ge_lt_mul_sub_0(%in_ptr0: !tt.ptr<i64> {tt.divisibility = 16 : i32} loc("in_ptr0"(#loc)), %out_ptr0: !tt.ptr<i64> {tt.divisibility = 16 : i32} loc("out_ptr0"(#loc)), %out_ptr1: !tt.ptr<i1> {tt.divisibility = 16 : i32} loc("out_ptr1"(#loc)), %ks0: i64 loc("ks0"(#loc)), %ks1: i64 loc("ks1"(#loc)), %ks2: i64 loc("ks2"(#loc)), %ks3: i64 loc("ks3"(#loc)), %ks4: i64 loc("ks4"(#loc)), %xnumel: i32 loc("xnumel"(#loc))) attributes {noinline = false} {
    %tmp21 = arith.constant dense<0> : tensor<16xi32> loc(#loc42)
    %c16_i32 = arith.constant 16 : i32 loc(#loc2)
    %xoffset = tt.get_program_id x : i32 loc(#loc43)
    %xoffset_0 = arith.muli %xoffset, %c16_i32 : i32 loc(#loc44)
    %xindex = tt.make_range {end = 16 : i32, start = 0 : i32} : tensor<16xi32> loc(#loc45)
    %xindex_1 = tt.splat %xoffset_0 : i32 -> tensor<16xi32> loc(#loc46)
    %xindex_2 = arith.addi %xindex_1, %xindex : tensor<16xi32> loc(#loc46)
    %xmask = tt.splat %xnumel : i32 -> tensor<16xi32> loc(#loc47)
    %xmask_3 = arith.cmpi slt, %xindex_2, %xmask : tensor<16xi32> loc(#loc47)
    %tmp0 = tt.splat %in_ptr0 : !tt.ptr<i64> -> tensor<16x!tt.ptr<i64>> loc(#loc48)
    %tmp0_4 = tt.addptr %tmp0, %xindex_2 : tensor<16x!tt.ptr<i64>>, tensor<16xi32> loc(#loc48)
    %tmp0_5 = tt.load %tmp0_4, %xmask_3 : tensor<16x!tt.ptr<i64>> loc(#loc49)
    %tmp2 = tt.splat %ks0 : i64 -> tensor<16xi64> loc(#loc50)
    %tmp2_6 = arith.cmpi sge, %tmp0_5, %tmp2 : tensor<16xi64> loc(#loc50)
    %tmp4 = tt.splat %ks1 : i64 -> tensor<16xi64> loc(#loc51)
    %tmp4_7 = arith.cmpi slt, %tmp0_5, %tmp4 : tensor<16xi64> loc(#loc51)
    %tmp5 = arith.andi %tmp2_6, %tmp4_7 : tensor<16xi1> loc(#loc52)
    %tmp7 = tt.splat %ks2 : i64 -> tensor<16xi64> loc(#loc53)
    %tmp7_8 = arith.cmpi sge, %tmp0_5, %tmp7 : tensor<16xi64> loc(#loc53)
    %tmp9 = tt.splat %ks3 : i64 -> tensor<16xi64> loc(#loc54)
    %tmp9_9 = arith.cmpi slt, %tmp0_5, %tmp9 : tensor<16xi64> loc(#loc54)
    %tmp10 = arith.andi %tmp7_8, %tmp9_9 : tensor<16xi1> loc(#loc55)
    %tmp11 = arith.ori %tmp5, %tmp10 : tensor<16xi1> loc(#loc56)
    %tmp12 = arith.extui %tmp11 : tensor<16xi1> to tensor<16xi64> loc(#loc57)
    %tmp13 = arith.extui %tmp5 : tensor<16xi1> to tensor<16xi64> loc(#loc58)
    %tmp14 = arith.muli %tmp13, %tmp2 : tensor<16xi64> loc(#loc59)
    %tmp15 = arith.extui %tmp10 : tensor<16xi1> to tensor<16xi64> loc(#loc60)
    %tmp16 = arith.addi %ks0, %ks2 : i64 loc(#loc61)
    %tmp16_10 = arith.subi %tmp16, %ks1 : i64 loc(#loc62)
    %tmp16_11 = arith.subi %tmp16_10, %ks4 : i64 loc(#loc63)
    %tmp17 = tt.splat %tmp16_11 : i64 -> tensor<16xi64> loc(#loc64)
    %tmp17_12 = arith.muli %tmp15, %tmp17 : tensor<16xi64> loc(#loc64)
    %tmp18 = arith.addi %tmp14, %tmp17_12 : tensor<16xi64> loc(#loc65)
    %tmp19 = arith.subi %tmp0_5, %tmp18 : tensor<16xi64> loc(#loc66)
    %tmp20 = arith.muli %tmp12, %tmp19 : tensor<16xi64> loc(#loc67)
    %tmp21_13 = arith.extui %tmp11 : tensor<16xi1> to tensor<16xi32> loc(#loc42)
    %tmp21_14 = arith.cmpi eq, %tmp21_13, %tmp21 : tensor<16xi32> loc(#loc42)
    %0 = tt.splat %out_ptr0 : !tt.ptr<i64> -> tensor<16x!tt.ptr<i64>> loc(#loc28)
    %1 = tt.addptr %0, %xindex_2 : tensor<16x!tt.ptr<i64>>, tensor<16xi32> loc(#loc28)
    tt.store %1, %tmp20, %xmask_3 : tensor<16x!tt.ptr<i64>> loc(#loc29)
    %2 = tt.splat %out_ptr1 : !tt.ptr<i1> -> tensor<16x!tt.ptr<i1>> loc(#loc30)
    %3 = tt.addptr %2, %xindex_2 : tensor<16x!tt.ptr<i1>>, tensor<16xi32> loc(#loc30)
    %4 = tt.bitcast %3 : tensor<16x!tt.ptr<i1>> -> tensor<16x!tt.ptr<i8>> loc(#loc31)
    %5 = arith.extui %tmp21_14 : tensor<16xi1> to tensor<16xi8> loc(#loc31)
    tt.store %4, %5, %xmask_3 : tensor<16x!tt.ptr<i8>> loc(#loc31)
    tt.return loc(#loc32)
  } loc(#loc)
} loc(#loc)
#loc1 = loc("/work/projects/polyullm/shihao/data_quality/cache/serve/torchinductor/53/c53xfo6zg7hrs4wwq4z3lapbadpzosm6usga2ty46ox64v6nim25.py":44:21)
#loc2 = loc(unknown)
#loc3 = loc("/work/projects/polyullm/shihao/data_quality/cache/serve/torchinductor/53/c53xfo6zg7hrs4wwq4z3lapbadpzosm6usga2ty46ox64v6nim25.py":19:28)
#loc4 = loc("/work/projects/polyullm/shihao/data_quality/cache/serve/torchinductor/53/c53xfo6zg7hrs4wwq4z3lapbadpzosm6usga2ty46ox64v6nim25.py":19:33)
#loc5 = loc("/work/projects/polyullm/shihao/data_quality/cache/serve/torchinductor/53/c53xfo6zg7hrs4wwq4z3lapbadpzosm6usga2ty46ox64v6nim25.py":20:36)
#loc6 = loc("/work/projects/polyullm/shihao/data_quality/cache/serve/torchinductor/53/c53xfo6zg7hrs4wwq4z3lapbadpzosm6usga2ty46ox64v6nim25.py":20:23)
#loc7 = loc("/work/projects/polyullm/shihao/data_quality/cache/serve/torchinductor/53/c53xfo6zg7hrs4wwq4z3lapbadpzosm6usga2ty46ox64v6nim25.py":21:21)
#loc8 = loc("/work/projects/polyullm/shihao/data_quality/cache/serve/torchinductor/53/c53xfo6zg7hrs4wwq4z3lapbadpzosm6usga2ty46ox64v6nim25.py":23:30)
#loc9 = loc("/work/projects/polyullm/shihao/data_quality/cache/serve/torchinductor/53/c53xfo6zg7hrs4wwq4z3lapbadpzosm6usga2ty46ox64v6nim25.py":23:35)
#loc10 = loc("/work/projects/polyullm/shihao/data_quality/cache/serve/torchinductor/53/c53xfo6zg7hrs4wwq4z3lapbadpzosm6usga2ty46ox64v6nim25.py":25:19)
#loc11 = loc("/work/projects/polyullm/shihao/data_quality/cache/serve/torchinductor/53/c53xfo6zg7hrs4wwq4z3lapbadpzosm6usga2ty46ox64v6nim25.py":27:18)
#loc12 = loc("/work/projects/polyullm/shihao/data_quality/cache/serve/torchinductor/53/c53xfo6zg7hrs4wwq4z3lapbadpzosm6usga2ty46ox64v6nim25.py":28:18)
#loc13 = loc("/work/projects/polyullm/shihao/data_quality/cache/serve/torchinductor/53/c53xfo6zg7hrs4wwq4z3lapbadpzosm6usga2ty46ox64v6nim25.py":30:19)
#loc14 = loc("/work/projects/polyullm/shihao/data_quality/cache/serve/torchinductor/53/c53xfo6zg7hrs4wwq4z3lapbadpzosm6usga2ty46ox64v6nim25.py":32:18)
#loc15 = loc("/work/projects/polyullm/shihao/data_quality/cache/serve/torchinductor/53/c53xfo6zg7hrs4wwq4z3lapbadpzosm6usga2ty46ox64v6nim25.py":33:19)
#loc16 = loc("/work/projects/polyullm/shihao/data_quality/cache/serve/torchinductor/53/c53xfo6zg7hrs4wwq4z3lapbadpzosm6usga2ty46ox64v6nim25.py":34:19)
#loc17 = loc("/work/projects/polyullm/shihao/data_quality/cache/serve/torchinductor/53/c53xfo6zg7hrs4wwq4z3lapbadpzosm6usga2ty46ox64v6nim25.py":35:21)
#loc18 = loc("/work/projects/polyullm/shihao/data_quality/cache/serve/torchinductor/53/c53xfo6zg7hrs4wwq4z3lapbadpzosm6usga2ty46ox64v6nim25.py":36:20)
#loc19 = loc("/work/projects/polyullm/shihao/data_quality/cache/serve/torchinductor/53/c53xfo6zg7hrs4wwq4z3lapbadpzosm6usga2ty46ox64v6nim25.py":37:20)
#loc20 = loc("/work/projects/polyullm/shihao/data_quality/cache/serve/torchinductor/53/c53xfo6zg7hrs4wwq4z3lapbadpzosm6usga2ty46ox64v6nim25.py":38:21)
#loc21 = loc("/work/projects/polyullm/shihao/data_quality/cache/serve/torchinductor/53/c53xfo6zg7hrs4wwq4z3lapbadpzosm6usga2ty46ox64v6nim25.py":39:18)
#loc22 = loc("/work/projects/polyullm/shihao/data_quality/cache/serve/torchinductor/53/c53xfo6zg7hrs4wwq4z3lapbadpzosm6usga2ty46ox64v6nim25.py":39:25)
#loc23 = loc("/work/projects/polyullm/shihao/data_quality/cache/serve/torchinductor/53/c53xfo6zg7hrs4wwq4z3lapbadpzosm6usga2ty46ox64v6nim25.py":39:38)
#loc24 = loc("/work/projects/polyullm/shihao/data_quality/cache/serve/torchinductor/53/c53xfo6zg7hrs4wwq4z3lapbadpzosm6usga2ty46ox64v6nim25.py":40:20)
#loc25 = loc("/work/projects/polyullm/shihao/data_quality/cache/serve/torchinductor/53/c53xfo6zg7hrs4wwq4z3lapbadpzosm6usga2ty46ox64v6nim25.py":41:20)
#loc26 = loc("/work/projects/polyullm/shihao/data_quality/cache/serve/torchinductor/53/c53xfo6zg7hrs4wwq4z3lapbadpzosm6usga2ty46ox64v6nim25.py":42:19)
#loc27 = loc("/work/projects/polyullm/shihao/data_quality/cache/serve/torchinductor/53/c53xfo6zg7hrs4wwq4z3lapbadpzosm6usga2ty46ox64v6nim25.py":43:20)
#loc28 = loc("/work/projects/polyullm/shihao/data_quality/cache/serve/torchinductor/53/c53xfo6zg7hrs4wwq4z3lapbadpzosm6usga2ty46ox64v6nim25.py":45:25)
#loc29 = loc("/work/projects/polyullm/shihao/data_quality/cache/serve/torchinductor/53/c53xfo6zg7hrs4wwq4z3lapbadpzosm6usga2ty46ox64v6nim25.py":45:37)
#loc30 = loc("/work/projects/polyullm/shihao/data_quality/cache/serve/torchinductor/53/c53xfo6zg7hrs4wwq4z3lapbadpzosm6usga2ty46ox64v6nim25.py":46:25)
#loc31 = loc("/work/projects/polyullm/shihao/data_quality/cache/serve/torchinductor/53/c53xfo6zg7hrs4wwq4z3lapbadpzosm6usga2ty46ox64v6nim25.py":46:37)
#loc32 = loc("/work/projects/polyullm/shihao/data_quality/cache/serve/torchinductor/53/c53xfo6zg7hrs4wwq4z3lapbadpzosm6usga2ty46ox64v6nim25.py":46:4)
#loc42 = loc("tmp21"(#loc1))
#loc43 = loc("xoffset"(#loc3))
#loc44 = loc("xoffset"(#loc4))
#loc45 = loc("xindex"(#loc5))
#loc46 = loc("xindex"(#loc6))
#loc47 = loc("xmask"(#loc7))
#loc48 = loc("tmp0"(#loc8))
#loc49 = loc("tmp0"(#loc9))
#loc50 = loc("tmp2"(#loc10))
#loc51 = loc("tmp4"(#loc11))
#loc52 = loc("tmp5"(#loc12))
#loc53 = loc("tmp7"(#loc13))
#loc54 = loc("tmp9"(#loc14))
#loc55 = loc("tmp10"(#loc15))
#loc56 = loc("tmp11"(#loc16))
#loc57 = loc("tmp12"(#loc17))
#loc58 = loc("tmp13"(#loc18))
#loc59 = loc("tmp14"(#loc19))
#loc60 = loc("tmp15"(#loc20))
#loc61 = loc("tmp16"(#loc21))
#loc62 = loc("tmp16"(#loc22))
#loc63 = loc("tmp16"(#loc23))
#loc64 = loc("tmp17"(#loc24))
#loc65 = loc("tmp18"(#loc25))
#loc66 = loc("tmp19"(#loc26))
#loc67 = loc("tmp20"(#loc27))
